cuda
==========================================================================================
Layer (type:depth-idx)                   Output Shape              Param #
==========================================================================================
MooreNetWithExits                        [1, 2]                    --
├─Sequential: 1-5                        --                        (recursive)
│    └─Sequential: 2-1                   [1, 1, 8, 8]              --
├─Sequential: 1-6                        --                        (recursive)
│    └─Sequential: 2-2                   [1, 2]                    --
│    │    └─Flatten: 3-1                 [1, 64]                   --
│    │    └─ReLU: 3-2                    [1, 64]                   --
│    │    └─Linear: 3-3                  [1, 2]                    130
├─Sequential: 1-5                        --                        (recursive)
│    └─Sequential: 2-3                   [1, 32, 6, 6]             --
│    │    └─Sequential: 3-4              [1, 32, 6, 6]             320
├─Sequential: 1-6                        --                        (recursive)
│    └─Sequential: 2-4                   [1, 2]                    --
│    │    └─Flatten: 3-5                 [1, 1152]                 --
│    │    └─Linear: 3-6                  [1, 2]                    2,306
├─Sequential: 1-5                        --                        (recursive)
│    └─Sequential: 2-5                   [1, 128, 4, 4]            --
│    │    └─Sequential: 3-7              [1, 64, 5, 5]             8,256
│    │    └─Sequential: 3-8              [1, 128, 4, 4]            32,896
├─Sequential: 1-6                        --                        (recursive)
│    └─Sequential: 2-6                   [1, 2]                    --
│    │    └─Flatten: 3-9                 [1, 2048]                 --
│    │    └─Linear: 3-10                 [1, 2]                    4,098
==========================================================================================
Total params: 48,006
Trainable params: 48,006
Non-trainable params: 0
Total mult-adds (M): 0.75
==========================================================================================
Input size (MB): 0.00
Forward/backward pass size (MB): 0.04
Params size (MB): 0.19
Estimated Total Size (MB): 0.23
==========================================================================================
…
